…
2024-12-26 13:10:34,817 - INFO - test	x: (303, 12, 32, 1), y: (303, 12, 32, 1)
2024-12-26 13:10:34,872 - INFO - Saved at ./libcity/cache/dataset_cache/point_based_lh_12_12_0.7_0.1_standard_4_False_False_False_True.npz
2024-12-26 13:10:34,873 - INFO - StandardScaler mean: 405.7639151745381, std: 1347.634944990107
2024-12-26 13:10:34,874 - INFO - NoneScaler
2024-12-26 13:10:35,743 - INFO - You select quick mode to train STGCN model.
2024-12-26 13:10:35,756 - INFO - Chebyshev_polynomial_Lk shape: (3, 32, 32)
2024-12-26 13:10:41,276 - INFO - STGCN(
  (st_conv1): STConvBlock(
    (tconv1): TemporalConvLayer(
      (align): Align()
      (conv): Conv2d(1, 64, kernel_size=(3, 1), stride=(1, 1))
    )
    (sconv): SpatioConvLayer(
      (align): Align()
    )
    (tconv2): TemporalConvLayer(
      (align): Align()
      (conv): Conv2d(32, 64, kernel_size=(3, 1), stride=(1, 1))
    )
    (ln): LayerNorm((32, 64), eps=1e-05, elementwise_affine=True)
    (dropout): Dropout(p=0, inplace=False)
  )
  (st_conv2): STConvBlock(
    (tconv1): TemporalConvLayer(
      (align): Align(
        (conv1x1): Conv2d(64, 32, kernel_size=(1, 1), stride=(1, 1))
      )
      (conv): Conv2d(64, 64, kernel_size=(3, 1), stride=(1, 1))
    )
    (sconv): SpatioConvLayer(
      (align): Align()
    )
    (tconv2): TemporalConvLayer(
      (align): Align()
      (conv): Conv2d(32, 128, kernel_size=(3, 1), stride=(1, 1))
    )
    (ln): LayerNorm((32, 128), eps=1e-05, elementwise_affine=True)
    (dropout): Dropout(p=0, inplace=False)
  )
  (output): OutputLayer(
    (tconv1): TemporalConvLayer(
      (align): Align()
      (conv): Conv2d(128, 256, kernel_size=(4, 1), stride=(1, 1))
    )
    (ln): LayerNorm((32, 128), eps=1e-05, elementwise_affine=True)
    (tconv2): TemporalConvLayer(
      (align): Align()
      (conv): Conv2d(128, 128, kernel_size=(1, 1), stride=(1, 1))
    )
    (fc): FullyConvLayer(
      (conv): Conv2d(128, 1, kernel_size=(1, 1), stride=(1, 1))
    )
  )
)
2024-12-26 13:10:41,276 - INFO - st_conv1.tconv1.conv.weight	torch.Size([64, 1, 3, 1])	cuda:0	True
2024-12-26 13:10:41,276 - INFO - st_conv1.tconv1.conv.bias	torch.Size([64])	cuda:0	True
2024-12-26 13:10:41,276 - INFO - st_conv1.sconv.theta	torch.Size([32, 32, 3])	cuda:0	True
2024-12-26 13:10:41,276 - INFO - st_conv1.sconv.b	torch.Size([1, 32, 1, 1])	cuda:0	True
…
