…
2024-10-09 21:20:47,500 - INFO - train	x: (11878, 12, 307, 1), y: (11878, 12, 307, 1)
2024-10-09 21:20:47,500 - INFO - eval	x: (1697, 12, 307, 1), y: (1697, 12, 307, 1)
2024-10-09 21:20:47,500 - INFO - test	x: (3394, 12, 307, 1), y: (3394, 12, 307, 1)
2024-10-09 21:20:58,825 - INFO - Saved at ./libcity/cache/dataset_cache/point_based_PEMSD4_12_12_0.7_0.1_standard_64_False_False_False_True.npz
2024-10-09 21:20:58,942 - INFO - StandardScaler mean: 208.8526392966568, std: 157.3266062823488
2024-10-09 21:20:58,942 - INFO - NoneScaler
2024-10-09 21:20:59,598 - INFO - receptive_field: 15
2024-10-09 21:20:59,632 - INFO - GWNET(
  (filter_convs): ModuleList(
    (0): Conv2d(32, 32, kernel_size=(1, 2), stride=(1, 1))
    (1): Conv2d(32, 32, kernel_size=(1, 2), stride=(1, 1), dilation=(2, 2))
    (2): Conv2d(32, 32, kernel_size=(1, 2), stride=(1, 1))
    (3): Conv2d(32, 32, kernel_size=(1, 2), stride=(1, 1), dilation=(2, 2))
    (4): Conv2d(32, 32, kernel_size=(1, 2), stride=(1, 1))
    (5): Conv2d(32, 32, kernel_size=(1, 2), stride=(1, 1), dilation=(2, 2))
    (6): Conv2d(32, 32, kernel_size=(1, 2), stride=(1, 1))
    (7): Conv2d(32, 32, kernel_size=(1, 2), stride=(1, 1), dilation=(2, 2))
  )
  (gate_convs): ModuleList(
    (0): Conv2d(32, 32, kernel_size=(1, 2), stride=(1, 1))
    (1): Conv2d(32, 32, kernel_size=(1, 2), stride=(1, 1), dilation=(2, 2))
    (2): Conv2d(32, 32, kernel_size=(1, 2), stride=(1, 1))
    (3): Conv2d(32, 32, kernel_size=(1, 2), stride=(1, 1), dilation=(2, 2))
    (4): Conv2d(32, 32, kernel_size=(1, 2), stride=(1, 1))
    (5): Conv2d(32, 32, kernel_size=(1, 2), stride=(1, 1), dilation=(2, 2))
    (6): Conv2d(32, 32, kernel_size=(1, 2), stride=(1, 1))
    (7): Conv2d(32, 32, kernel_size=(1, 2), stride=(1, 1), dilation=(2, 2))
  )
  (residual_convs): ModuleList(
    (0-7): 8 x Conv2d(32, 32, kernel_size=(1, 1), stride=(1, 1))
  )
  (skip_convs): ModuleList(
    (0-7): 8 x Conv2d(32, 256, kernel_size=(1, 1), stride=(1, 1))
  )
  (bn): ModuleList(
    (0-7): 8 x BatchNorm2d(32, eps=1e-05, momentum=0.1, affine=True, track_running_stats=True)
  )
  (gconv): ModuleList(
    (0-7): 8 x GCN(
      (nconv): NConv()
      (mlp): Linear(
        (mlp): Conv2d(96, 32, kernel_size=(1, 1), stride=(1, 1))
      )
    )
  )
  (start_conv): Conv2d(1, 32, kernel_size=(1, 1), stride=(1, 1))
  (end_conv_1): Conv2d(256, 512, kernel_size=(1, 1), stride=(1, 1))
  (end_conv_2): Conv2d(512, 12, kernel_size=(1, 1), stride=(1, 1))
)
2024-10-09 21:20:59,633 - INFO - nodevec1	torch.Size([307, 10])	cuda:0	True
2024-10-09 21:20:59,633 - INFO - nodevec2	torch.Size([10, 307])	cuda:0	True
2024-10-09 21:20:59,633 - INFO - filter_convs.0.weight	torch.Size([32, 32, 1, 2])	cuda:0	True
2024-10-09 21:20:59,633 - INFO - filter_convs.0.bias	torch.Size([32])	cuda:0	True
2024-10-09 21:20:59,633 - INFO - filter_convs.1.weight	torch.Size([32, 32, 1, 2])	cuda:0	True
…
