…
2024-08-20 14:58:01,098 - INFO - train	x: (23974, 12, 207, 1), y: (23974, 12, 207, 1)
2024-08-20 14:58:01,098 - INFO - eval	x: (3425, 12, 207, 1), y: (3425, 12, 207, 1)
2024-08-20 14:58:01,098 - INFO - test	x: (6850, 12, 207, 1), y: (6850, 12, 207, 1)
2024-08-20 14:58:21,680 - INFO - Saved at ./libcity/cache/dataset_cache/point_based_METR_LA_12_12_0.7_0.1_standard_32_False_True_False_True.npz
2024-08-20 14:58:22,086 - INFO - StandardScaler mean: 54.40592829587626, std: 19.493739270573098
2024-08-20 14:58:22,086 - INFO - NoneScaler
2024-08-20 14:58:27,562 - INFO - STSGCN(
  (first_layer_embedding): Linear(in_features=1, out_features=64, bias=True)
  (stsgcl_layers): ModuleList(
    (0): STSGCL(
      (layer): STSGCNLayerIndividual(
        (position_embedding): PositionEmbedding()
        (gcms): ModuleList(
          (0): Stsgcm(
            (layers): ModuleList(
              (0): GcnOperation(
                (layer): Linear(in_features=64, out_features=128, bias=True)
              )
              (1): GcnOperation(
                (layer): Linear(in_features=64, out_features=128, bias=True)
              )
              (2): GcnOperation(
                (layer): Linear(in_features=64, out_features=128, bias=True)
              )
            )
          )
          (1): Stsgcm(
            (layers): ModuleList(
              (0): GcnOperation(
                (layer): Linear(in_features=64, out_features=128, bias=True)
              )
              (1): GcnOperation(
                (layer): Linear(in_features=64, out_features=128, bias=True)
              )
              (2): GcnOperation(
                (layer): Linear(in_features=64, out_features=128, bias=True)
              )
            )
          )
          (2): Stsgcm(
            (layers): ModuleList(
              (0): GcnOperation(
                (layer): Linear(in_features=64, out_features=128, bias=True)
              )
              (1): GcnOperation(
                (layer): Linear(in_features=64, out_features=128, bias=True)
              )
              (2): GcnOperation(
                (layer): Linear(in_features=64, out_features=128, bias=True)
              )
            )
          )
          (3): Stsgcm(
            (layers): ModuleList(
              (0): GcnOperation(
                (layer): Linear(in_features=64, out_features=128, bias=True)
              )
              (1): GcnOperation(
                (layer): Linear(in_features=64, out_features=128, bias=True)
              )
              (2): GcnOperation(
                (layer): Linear(in_features=64, out_features=128, bias=True)
              )
            )
          )
          (4): Stsgcm(
            (layers): ModuleList(
              (0): GcnOperation(
                (layer): Linear(in_features=64, out_features=128, bias=True)
              )
              (1): GcnOperation(
                (layer): Linear(in_features=64, out_features=128, bias=True)
              )
              (2): GcnOperation(
                (layer): Linear(in_features=64, out_features=128, bias=True)
              )
            )
          )
          (5): Stsgcm(
            (layers): ModuleList(
              (0): GcnOperation(
                (layer): Linear(in_features=64, out_features=128, bias=True)
              )
              (1): GcnOperation(
                (layer): Linear(in_features=64, out_features=128, bias=True)
              )
              (2): GcnOperation(
                (layer): Linear(in_features=64, out_features=128, bias=True)
              )
            )
          )
          (6): Stsgcm(
            (layers): ModuleList(
              (0): GcnOperation(
                (layer): Linear(in_features=64, out_features=128, bias=True)
              )
              (1): GcnOperation(
                (layer): Linear(in_features=64, out_features=128, bias=True)
              )
              (2): GcnOperation(
                (layer): Linear(in_features=64, out_features=128, bias=True)
              )
            )
          )
          (7): Stsgcm(
            (layers): ModuleList(
              (0): GcnOperation(
                (layer): Linear(in_features=64, out_features=128, bias=True)
              )
              (1): GcnOperation(
                (layer): Linear(in_features=64, out_features=128, bias=True)
              )
              (2): GcnOperation(
                (layer): Linear(in_features=64, out_features=128, bias=True)
              )
            )
          )
          (8): Stsgcm(
            (layers): ModuleList(
              (0): GcnOperation(
                (layer): Linear(in_features=64, out_features=128, bias=True)
              )
              (1): GcnOperation(
                (layer): Linear(in_features=64, out_features=128, bias=True)
              )
              (2): GcnOperation(
                (layer): Linear(in_features=64, out_features=128, bias=True)
              )
            )
          )
          (9): Stsgcm(
            (layers): ModuleList(
              (0): GcnOperation(
                (layer): Linear(in_features=64, out_features=128, bias=True)
              )
              (1): GcnOperation(
                (layer): Linear(in_features=64, out_features=128, bias=True)
              )
              (2): GcnOperation(
                (layer): Linear(in_features=64, out_features=128, bias=True)
              )
            )
          )
        )
      )
    )
    (1): STSGCL(
      (layer): STSGCNLayerIndividual(
        (position_embedding): PositionEmbedding()
        (gcms): ModuleList(
          (0): Stsgcm(
            (layers): ModuleList(
              (0): GcnOperation(
                (layer): Linear(in_features=64, out_features=128, bias=True)
              )
              (1): GcnOperation(
                (layer): Linear(in_features=64, out_features=128, bias=True)
              )
              (2): GcnOperation(
                (layer): Linear(in_features=64, out_features=128, bias=True)
              )
            )
          )
          (1): Stsgcm(
            (layers): ModuleList(
              (0): GcnOperation(
                (layer): Linear(in_features=64, out_features=128, bias=True)
              )
              (1): GcnOperation(
                (layer): Linear(in_features=64, out_features=128, bias=True)
              )
              (2): GcnOperation(
                (layer): Linear(in_features=64, out_features=128, bias=True)
              )
            )
          )
          (2): Stsgcm(
            (layers): ModuleList(
              (0): GcnOperation(
                (layer): Linear(in_features=64, out_features=128, bias=True)
              )
              (1): GcnOperation(
                (layer): Linear(in_features=64, out_features=128, bias=True)
              )
              (2): GcnOperation(
                (layer): Linear(in_features=64, out_features=128, bias=True)
              )
            )
          )
          (3): Stsgcm(
            (layers): ModuleList(
              (0): GcnOperation(
                (layer): Linear(in_features=64, out_features=128, bias=True)
              )
              (1): GcnOperation(
                (layer): Linear(in_features=64, out_features=128, bias=True)
              )
              (2): GcnOperation(
                (layer): Linear(in_features=64, out_features=128, bias=True)
              )
            )
          )
          (4): Stsgcm(
            (layers): ModuleList(
              (0): GcnOperation(
                (layer): Linear(in_features=64, out_features=128, bias=True)
              )
              (1): GcnOperation(
                (layer): Linear(in_features=64, out_features=128, bias=True)
              )
              (2): GcnOperation(
                (layer): Linear(in_features=64, out_features=128, bias=True)
              )
            )
          )
          (5): Stsgcm(
            (layers): ModuleList(
              (0): GcnOperation(
                (layer): Linear(in_features=64, out_features=128, bias=True)
              )
              (1): GcnOperation(
                (layer): Linear(in_features=64, out_features=128, bias=True)
              )
              (2): GcnOperation(
                (layer): Linear(in_features=64, out_features=128, bias=True)
              )
            )
          )
          (6): Stsgcm(
            (layers): ModuleList(
              (0): GcnOperation(
                (layer): Linear(in_features=64, out_features=128, bias=True)
              )
              (1): GcnOperation(
                (layer): Linear(in_features=64, out_features=128, bias=True)
              )
              (2): GcnOperation(
                (layer): Linear(in_features=64, out_features=128, bias=True)
              )
            )
          )
          (7): Stsgcm(
            (layers): ModuleList(
              (0): GcnOperation(
                (layer): Linear(in_features=64, out_features=128, bias=True)
              )
              (1): GcnOperation(
                (layer): Linear(in_features=64, out_features=128, bias=True)
              )
              (2): GcnOperation(
                (layer): Linear(in_features=64, out_features=128, bias=True)
              )
            )
          )
        )
      )
    )
    (2): STSGCL(
      (layer): STSGCNLayerIndividual(
        (position_embedding): PositionEmbedding()
        (gcms): ModuleList(
          (0): Stsgcm(
            (layers): ModuleList(
              (0): GcnOperation(
                (layer): Linear(in_features=64, out_features=128, bias=True)
              )
              (1): GcnOperation(
                (layer): Linear(in_features=64, out_features=128, bias=True)
              )
              (2): GcnOperation(
                (layer): Linear(in_features=64, out_features=128, bias=True)
              )
            )
          )
          (1): Stsgcm(
            (layers): ModuleList(
              (0): GcnOperation(
                (layer): Linear(in_features=64, out_features=128, bias=True)
              )
              (1): GcnOperation(
                (layer): Linear(in_features=64, out_features=128, bias=True)
              )
              (2): GcnOperation(
                (layer): Linear(in_features=64, out_features=128, bias=True)
              )
            )
          )
          (2): Stsgcm(
            (layers): ModuleList(
              (0): GcnOperation(
                (layer): Linear(in_features=64, out_features=128, bias=True)
              )
              (1): GcnOperation(
                (layer): Linear(in_features=64, out_features=128, bias=True)
              )
              (2): GcnOperation(
                (layer): Linear(in_features=64, out_features=128, bias=True)
              )
            )
          )
          (3): Stsgcm(
            (layers): ModuleList(
              (0): GcnOperation(
                (layer): Linear(in_features=64, out_features=128, bias=True)
              )
              (1): GcnOperation(
                (layer): Linear(in_features=64, out_features=128, bias=True)
              )
              (2): GcnOperation(
                (layer): Linear(in_features=64, out_features=128, bias=True)
              )
            )
          )
          (4): Stsgcm(
            (layers): ModuleList(
              (0): GcnOperation(
                (layer): Linear(in_features=64, out_features=128, bias=True)
              )
              (1): GcnOperation(
                (layer): Linear(in_features=64, out_features=128, bias=True)
              )
              (2): GcnOperation(
                (layer): Linear(in_features=64, out_features=128, bias=True)
              )
            )
          )
          (5): Stsgcm(
            (layers): ModuleList(
              (0): GcnOperation(
                (layer): Linear(in_features=64, out_features=128, bias=True)
              )
              (1): GcnOperation(
                (layer): Linear(in_features=64, out_features=128, bias=True)
              )
              (2): GcnOperation(
                (layer): Linear(in_features=64, out_features=128, bias=True)
              )
            )
          )
        )
      )
    )
    (3): STSGCL(
      (layer): STSGCNLayerIndividual(
        (position_embedding): PositionEmbedding()
        (gcms): ModuleList(
          (0): Stsgcm(
            (layers): ModuleList(
              (0): GcnOperation(
                (layer): Linear(in_features=64, out_features=128, bias=True)
              )
              (1): GcnOperation(
                (layer): Linear(in_features=64, out_features=128, bias=True)
              )
              (2): GcnOperation(
                (layer): Linear(in_features=64, out_features=128, bias=True)
              )
            )
          )
          (1): Stsgcm(
            (layers): ModuleList(
              (0): GcnOperation(
                (layer): Linear(in_features=64, out_features=128, bias=True)
              )
              (1): GcnOperation(
                (layer): Linear(in_features=64, out_features=128, bias=True)
              )
              (2): GcnOperation(
                (layer): Linear(in_features=64, out_features=128, bias=True)
              )
            )
          )
          (2): Stsgcm(
            (layers): ModuleList(
              (0): GcnOperation(
                (layer): Linear(in_features=64, out_features=128, bias=True)
              )
              (1): GcnOperation(
                (layer): Linear(in_features=64, out_features=128, bias=True)
              )
              (2): GcnOperation(
                (layer): Linear(in_features=64, out_features=128, bias=True)
              )
            )
          )
          (3): Stsgcm(
            (layers): ModuleList(
              (0): GcnOperation(
                (layer): Linear(in_features=64, out_features=128, bias=True)
              )
              (1): GcnOperation(
                (layer): Linear(in_features=64, out_features=128, bias=True)
              )
              (2): GcnOperation(
                (layer): Linear(in_features=64, out_features=128, bias=True)
              )
            )
          )
        )
      )
    )
  )
  (outputs): ModuleList(
    (0): OutputLayer(
      (hidden_layer): Linear(in_features=256, out_features=128, bias=True)
      (ouput_layer): Linear(in_features=128, out_features=1, bias=True)
    )
    (1): OutputLayer(
      (hidden_layer): Linear(in_features=256, out_features=128, bias=True)
      (ouput_layer): Linear(in_features=128, out_features=1, bias=True)
    )
    (2): OutputLayer(
      (hidden_layer): Linear(in_features=256, out_features=128, bias=True)
      (ouput_layer): Linear(in_features=128, out_features=1, bias=True)
    )
    (3): OutputLayer(
      (hidden_layer): Linear(in_features=256, out_features=128, bias=True)
      (ouput_layer): Linear(in_features=128, out_features=1, bias=True)
    )
    (4): OutputLayer(
      (hidden_layer): Linear(in_features=256, out_features=128, bias=True)
      (ouput_layer): Linear(in_features=128, out_features=1, bias=True)
    )
    (5): OutputLayer(
      (hidden_layer): Linear(in_features=256, out_features=128, bias=True)
      (ouput_layer): Linear(in_features=128, out_features=1, bias=True)
    )
    (6): OutputLayer(
      (hidden_layer): Linear(in_features=256, out_features=128, bias=True)
      (ouput_layer): Linear(in_features=128, out_features=1, bias=True)
    )
    (7): OutputLayer(
      (hidden_layer): Linear(in_features=256, out_features=128, bias=True)
      (ouput_layer): Linear(in_features=128, out_features=1, bias=True)
    )
    (8): OutputLayer(
      (hidden_layer): Linear(in_features=256, out_features=128, bias=True)
      (ouput_layer): Linear(in_features=128, out_features=1, bias=True)
    )
    (9): OutputLayer(
      (hidden_layer): Linear(in_features=256, out_features=128, bias=True)
      (ouput_layer): Linear(in_features=128, out_features=1, bias=True)
    )
    (10): OutputLayer(
      (hidden_layer): Linear(in_features=256, out_features=128, bias=True)
      (ouput_layer): Linear(in_features=128, out_features=1, bias=True)
    )
    (11): OutputLayer(
      (hidden_layer): Linear(in_features=256, out_features=128, bias=True)
      (ouput_layer): Linear(in_features=128, out_features=1, bias=True)
    )
  )
  (loss): SmoothL1Loss()
)
2024-08-20 14:58:27,566 - INFO - first_layer_embedding.weight	torch.Size([64, 1])	cuda:1	True
2024-08-20 14:58:27,566 - INFO - first_layer_embedding.bias	torch.Size([64])	cuda:1	True
2024-08-20 14:58:27,566 - INFO - stsgcl_layers.0.layer.position_embedding.temporal_emb	torch.Size([1, 12, 1, 64])	cuda:1	True
2024-08-20 14:58:27,566 - INFO - stsgcl_layers.0.layer.position_embedding.spatial_emb	torch.Size([1, 1, 207, 64])	cuda:1	True
…
