…
2024-08-20 15:10:05,373 - INFO - x shape: (34249, 12, 207, 1), y shape: (34249, 12, 207, 1)
2024-08-20 15:10:05,377 - INFO - train	x: (23974, 12, 207, 1), y: (23974, 12, 207, 1)
2024-08-20 15:10:05,377 - INFO - eval	x: (3425, 12, 207, 1), y: (3425, 12, 207, 1)
2024-08-20 15:10:05,377 - INFO - test	x: (6850, 12, 207, 1), y: (6850, 12, 207, 1)
2024-08-20 15:10:26,780 - INFO - Saved at ./libcity/cache/dataset_cache/point_based_METR_LA_12_12_0.7_0.1_standard_64_True_True_False_True.npz
2024-08-20 15:10:27,317 - INFO - StandardScaler mean: 54.40592829587626, std: 19.493739270573098
2024-08-20 15:10:27,317 - INFO - NoneScaler
2024-08-20 15:10:32,382 - INFO - HGCN(
  (start_conv): Conv2d(1, 32, kernel_size=(1, 1), stride=(1, 1))
  (start_conv_cluster): Conv2d(1, 32, kernel_size=(1, 1), stride=(1, 1))
  (block1): GCNPool(
    (time_conv): Conv2d(64, 64, kernel_size=(1, 3), stride=(1, 1), dilation=(2, 2))
    (multigcn): multi_gcn_time(
      (nconv): nconv()
      (mlp): linear_time(
        (mlp): Conv2d(224, 64, kernel_size=(1, 3), stride=(1, 1))
      )
    )
    (TAT): TATT_1(
      (conv1): Conv2d(32, 1, kernel_size=(1, 1), stride=(1, 1), bias=False)
      (conv2): Conv2d(207, 1, kernel_size=(1, 1), stride=(1, 1), bias=False)
      (bn): BatchNorm1d(6, eps=1e-05, momentum=0.1, affine=True, track_running_stats=True)
    )
    (bn): BatchNorm2d(32, eps=1e-05, momentum=0.1, affine=True, track_running_stats=True)
    (conv1): Conv2d(64, 32, kernel_size=(1, 1), stride=(1, 1))
  )
  (block2): GCNPool(
    (time_conv): Conv2d(64, 64, kernel_size=(1, 2), stride=(1, 1), dilation=(2, 2))
    (multigcn): multi_gcn_time(
      (nconv): nconv()
      (mlp): linear_time(
        (mlp): Conv2d(224, 64, kernel_size=(1, 2), stride=(1, 1))
      )
    )
    (TAT): TATT_1(
      (conv1): Conv2d(32, 1, kernel_size=(1, 1), stride=(1, 1), bias=False)
      (conv2): Conv2d(207, 1, kernel_size=(1, 1), stride=(1, 1), bias=False)
      (bn): BatchNorm1d(3, eps=1e-05, momentum=0.1, affine=True, track_running_stats=True)
    )
    (bn): BatchNorm2d(32, eps=1e-05, momentum=0.1, affine=True, track_running_stats=True)
    (conv1): Conv2d(64, 32, kernel_size=(1, 1), stride=(1, 1))
  )
  (block_cluster1): GCNPool(
    (time_conv): Conv2d(32, 64, kernel_size=(1, 3), stride=(1, 1), dilation=(2, 2))
    (multigcn): multi_gcn_time(
      (nconv): nconv()
      (mlp): linear_time(
        (mlp): Conv2d(224, 64, kernel_size=(1, 3), stride=(1, 1))
      )
    )
    (TAT): TATT_1(
      (conv1): Conv2d(32, 1, kernel_size=(1, 1), stride=(1, 1), bias=False)
      (conv2): Conv2d(10, 1, kernel_size=(1, 1), stride=(1, 1), bias=False)
      (bn): BatchNorm1d(6, eps=1e-05, momentum=0.1, affine=True, track_running_stats=True)
    )
    (bn): BatchNorm2d(32, eps=1e-05, momentum=0.1, affine=True, track_running_stats=True)
    (conv1): Conv2d(32, 32, kernel_size=(1, 1), stride=(1, 1))
  )
  (block_cluster2): GCNPool(
    (time_conv): Conv2d(32, 64, kernel_size=(1, 2), stride=(1, 1), dilation=(2, 2))
    (multigcn): multi_gcn_time(
      (nconv): nconv()
      (mlp): linear_time(
        (mlp): Conv2d(224, 64, kernel_size=(1, 2), stride=(1, 1))
      )
    )
    (TAT): TATT_1(
      (conv1): Conv2d(32, 1, kernel_size=(1, 1), stride=(1, 1), bias=False)
      (conv2): Conv2d(10, 1, kernel_size=(1, 1), stride=(1, 1), bias=False)
      (bn): BatchNorm1d(3, eps=1e-05, momentum=0.1, affine=True, track_running_stats=True)
    )
    (bn): BatchNorm2d(32, eps=1e-05, momentum=0.1, affine=True, track_running_stats=True)
    (conv1): Conv2d(32, 32, kernel_size=(1, 1), stride=(1, 1))
  )
  (skip_conv1): Conv2d(64, 256, kernel_size=(1, 1), stride=(1, 1))
  (skip_conv2): Conv2d(64, 256, kernel_size=(1, 1), stride=(1, 1))
  (end_conv_1): Conv2d(256, 512, kernel_size=(1, 3), stride=(1, 1))
  (end_conv_2): Conv2d(512, 12, kernel_size=(1, 1), stride=(1, 1))
  (bn): BatchNorm2d(1, eps=1e-05, momentum=0.1, affine=False, track_running_stats=True)
  (bn_cluster): BatchNorm2d(1, eps=1e-05, momentum=0.1, affine=False, track_running_stats=True)
  (gate1): gate(
    (conv1): Conv2d(64, 32, kernel_size=(1, 1), stride=(1, 1))
  )
  (gate2): gate(
    (conv1): Conv2d(64, 32, kernel_size=(1, 1), stride=(1, 1))
  )
  (gate3): gate(
    (conv1): Conv2d(64, 32, kernel_size=(1, 1), stride=(1, 1))
  )
  (transmit1): Transmit(
    (conv1): Conv2d(32, 1, kernel_size=(1, 1), stride=(1, 1), bias=False)
    (conv2): Conv2d(12, 1, kernel_size=(1, 1), stride=(1, 1), bias=False)
  )
  (transmit2): Transmit(
    (conv1): Conv2d(32, 1, kernel_size=(1, 1), stride=(1, 1), bias=False)
    (conv2): Conv2d(6, 1, kernel_size=(1, 1), stride=(1, 1), bias=False)
  )
  (transmit3): Transmit(
    (conv1): Conv2d(32, 1, kernel_size=(1, 1), stride=(1, 1), bias=False)
    (conv2): Conv2d(3, 1, kernel_size=(1, 1), stride=(1, 1), bias=False)
  )
  (linear): Linear(in_features=1, out_features=1, bias=True)
)
2024-08-20 15:10:32,384 - INFO - h	torch.Size([207, 207])	cuda:2	True
2024-08-20 15:10:32,384 - INFO - h_cluster	torch.Size([10, 10])	cuda:2	True
2024-08-20 15:10:32,384 - INFO - nodevec1	torch.Size([207, 10])	cuda:2	True
2024-08-20 15:10:32,384 - INFO - nodevec2	torch.Size([10, 207])	cuda:2	True
2024-08-20 15:10:32,384 - INFO - nodevec1_c	torch.Size([10, 10])	cuda:2	True
…
