…
2024-08-20 17:34:59,770 - INFO - eval	x: (3425, 12, 207, 1), y: (3425, 12, 207, 1)
2024-08-20 17:34:59,770 - INFO - test	x: (6850, 12, 207, 1), y: (6850, 12, 207, 1)
2024-08-20 17:35:19,932 - INFO - Saved at ./libcity/cache/dataset_cache/point_based_METR_LA_12_12_0.7_0.1_standard_64_False_True_False_True.npz
2024-08-20 17:35:20,437 - INFO - StandardScaler mean: 54.40592829587626, std: 19.493739270573098
2024-08-20 17:35:20,437 - INFO - NoneScaler
2024-08-20 17:35:25,130 - INFO - receptive_field: 19
2024-08-20 17:35:25,189 - INFO - MTGNN(
  (filter_convs): ModuleList(
    (0): DilatedInception(
      (tconv): ModuleList(
        (0): Conv2d(32, 8, kernel_size=(1, 2), stride=(1, 1))
        (1): Conv2d(32, 8, kernel_size=(1, 3), stride=(1, 1))
        (2): Conv2d(32, 8, kernel_size=(1, 6), stride=(1, 1))
        (3): Conv2d(32, 8, kernel_size=(1, 7), stride=(1, 1))
      )
    )
    (1): DilatedInception(
      (tconv): ModuleList(
        (0): Conv2d(32, 8, kernel_size=(1, 2), stride=(1, 1))
        (1): Conv2d(32, 8, kernel_size=(1, 3), stride=(1, 1))
        (2): Conv2d(32, 8, kernel_size=(1, 6), stride=(1, 1))
        (3): Conv2d(32, 8, kernel_size=(1, 7), stride=(1, 1))
      )
    )
    (2): DilatedInception(
      (tconv): ModuleList(
        (0): Conv2d(32, 8, kernel_size=(1, 2), stride=(1, 1))
        (1): Conv2d(32, 8, kernel_size=(1, 3), stride=(1, 1))
        (2): Conv2d(32, 8, kernel_size=(1, 6), stride=(1, 1))
        (3): Conv2d(32, 8, kernel_size=(1, 7), stride=(1, 1))
      )
    )
  )
  (gate_convs): ModuleList(
    (0): DilatedInception(
      (tconv): ModuleList(
        (0): Conv2d(32, 8, kernel_size=(1, 2), stride=(1, 1))
        (1): Conv2d(32, 8, kernel_size=(1, 3), stride=(1, 1))
        (2): Conv2d(32, 8, kernel_size=(1, 6), stride=(1, 1))
        (3): Conv2d(32, 8, kernel_size=(1, 7), stride=(1, 1))
      )
    )
    (1): DilatedInception(
      (tconv): ModuleList(
        (0): Conv2d(32, 8, kernel_size=(1, 2), stride=(1, 1))
        (1): Conv2d(32, 8, kernel_size=(1, 3), stride=(1, 1))
        (2): Conv2d(32, 8, kernel_size=(1, 6), stride=(1, 1))
        (3): Conv2d(32, 8, kernel_size=(1, 7), stride=(1, 1))
      )
    )
    (2): DilatedInception(
      (tconv): ModuleList(
        (0): Conv2d(32, 8, kernel_size=(1, 2), stride=(1, 1))
        (1): Conv2d(32, 8, kernel_size=(1, 3), stride=(1, 1))
        (2): Conv2d(32, 8, kernel_size=(1, 6), stride=(1, 1))
        (3): Conv2d(32, 8, kernel_size=(1, 7), stride=(1, 1))
      )
    )
  )
  (residual_convs): ModuleList(
    (0): Conv2d(32, 32, kernel_size=(1, 1), stride=(1, 1))
    (1): Conv2d(32, 32, kernel_size=(1, 1), stride=(1, 1))
    (2): Conv2d(32, 32, kernel_size=(1, 1), stride=(1, 1))
  )
  (skip_convs): ModuleList(
    (0): Conv2d(32, 64, kernel_size=(1, 13), stride=(1, 1))
    (1): Conv2d(32, 64, kernel_size=(1, 7), stride=(1, 1))
    (2): Conv2d(32, 64, kernel_size=(1, 1), stride=(1, 1))
  )
  (gconv1): ModuleList(
    (0): MixProp(
      (nconv): NConv()
      (mlp): Linear(
        (mlp): Conv2d(96, 32, kernel_size=(1, 1), stride=(1, 1))
      )
    )
    (1): MixProp(
      (nconv): NConv()
      (mlp): Linear(
        (mlp): Conv2d(96, 32, kernel_size=(1, 1), stride=(1, 1))
      )
    )
    (2): MixProp(
      (nconv): NConv()
      (mlp): Linear(
        (mlp): Conv2d(96, 32, kernel_size=(1, 1), stride=(1, 1))
      )
    )
  )
  (gconv2): ModuleList(
    (0): MixProp(
      (nconv): NConv()
      (mlp): Linear(
        (mlp): Conv2d(96, 32, kernel_size=(1, 1), stride=(1, 1))
      )
    )
    (1): MixProp(
      (nconv): NConv()
      (mlp): Linear(
        (mlp): Conv2d(96, 32, kernel_size=(1, 1), stride=(1, 1))
      )
    )
    (2): MixProp(
      (nconv): NConv()
      (mlp): Linear(
        (mlp): Conv2d(96, 32, kernel_size=(1, 1), stride=(1, 1))
      )
    )
  )
  (norm): ModuleList(
    (0): LayerNorm((32, 207, 13), eps=1e-05, elementwise_affine=True)
    (1): LayerNorm((32, 207, 7), eps=1e-05, elementwise_affine=True)
    (2): LayerNorm((32, 207, 1), eps=1e-05, elementwise_affine=True)
  )
  (start_conv): Conv2d(1, 32, kernel_size=(1, 1), stride=(1, 1))
  (gc): GraphConstructor(
    (emb1): Embedding(207, 40)
    (emb2): Embedding(207, 40)
    (lin1): Linear(in_features=40, out_features=40, bias=True)
    (lin2): Linear(in_features=40, out_features=40, bias=True)
  )
  (end_conv_1): Conv2d(64, 128, kernel_size=(1, 1), stride=(1, 1))
  (end_conv_2): Conv2d(128, 12, kernel_size=(1, 1), stride=(1, 1))
  (skip0): Conv2d(1, 64, kernel_size=(1, 19), stride=(1, 1))
  (skipE): Conv2d(32, 64, kernel_size=(1, 1), stride=(1, 1))
)
2024-08-20 17:35:25,191 - INFO - filter_convs.0.tconv.0.weight	torch.Size([8, 32, 1, 2])	cuda:3	True
2024-08-20 17:35:25,191 - INFO - filter_convs.0.tconv.0.bias	torch.Size([8])	cuda:3	True
2024-08-20 17:35:25,191 - INFO - filter_convs.0.tconv.1.weight	torch.Size([8, 32, 1, 3])	cuda:3	True
2024-08-20 17:35:25,191 - INFO - filter_convs.0.tconv.1.bias	torch.Size([8])	cuda:3	True
…
